LJ7_2D/data/LJ7_2hidden_LJ7.pt (torch, 3287 bytes, 5 tensors)

weight f4 [10, 2]
00000000: 7bc1 e2bf 7995 2640 6b98 0d3f 5b62 243f
00000010: e0c5 923f d52e 863f 2a61 963f a925 b83f
00000020: 22a1 55bf 54d4 ec3f e33d 293f c133 5d3f
00000030: 15ef 723f 1329 893f 3b07 40bf 16ef 0340
00000040: 272e 433f 2ff6 fa3e 3d16 a0bf 2bed b23f
-1.7715296 2.602873 0.55310696 0.6421258 1.1466637 1.0483042 1.1748402 1.4386493
-0.83448994 1.8502297 0.66110057 0.86407095 0.9489606 1.071566 -0.7501103 2.0614676
0.762423 0.49015948 -1.2506787 1.3978628

bias f4 [10]
00000000: c50e 4b3e 2863 b93e f411 c1be c98c 7ebd
00000010: 290e 13bf a686 433f b957 b5bb db42 5c3f
00000020: c04d 30be 1b32 00bf
0.19829853 0.36208463 -0.3770901 -0.062145982 -0.5744348 0.7637733 -0.005534139 0.86039513
-0.1721716 -0.50076455

weight f4 [10, 10]
00000000: 82dc 83c0 e078 a13f d9fe 2d3f bd1d 853f
00000010: 423e 27c0 ff0f bf3f 4092 443f bf2e 1bbe
00000020: 9cbc 853e fa38 fec0 e506 43bf 7186 2e3e
00000030: de9d f8be a6c7 113f 1eae 36c0 8cb4 733e
00000040: aa41 8c3e 9012 2dbf e248 37bf c00f 54bf
00000050: 87f7 3040 fe74 8dbe 6997 06bf 0d09 55bf
00000060: c780 0b40 e784 67bf 6364 9dbe 2dd4 983e
00000070: e81a d7bd d153 3140 5eef 97be 044b f2be
00000080: c417 65bf 8cc9 abbe d310 fdbe 58c7 9bbe
00000090: 410d 02bf fed1 ca3f a1ee 39bf d95b 55be
000000a0: e573 e8be bf38 00be 8351 16be 8c5e a43e
000000b0: d60c f8be b918 c43d 62d8 d63d 32f1 45bf
000000c0: cd7f 00bb 65ce efbe f4aa 9a3f 7b6b a13e
000000d0: e29a 3740 6c1e 7b3f 4873 9e3f 66da 3d3e
000000e0: 6dcc 963f 3e64 80bf 43c7 2540 54bc 4a3f
000000f0: b2e6 1e40 b1a4 08bf 7292 e0be 8d79 7cbf
00000100: 4b69 943f ad41 e4be dcf4 29bf 6865 0fbd
00000110: d44f cebe 8637 a140 8e87 c5bb a4c0 8ebe
00000120: 2ec0 b83f 9b30 3f3f 9d4d 3e3d ffdc 0ebe
00000130: f934 9f3e cd38 8d3f 8589 843f 6a00 adbd
00000140: 9ecc 8f3f 5aa7 9f3e 79e1 c03f f566 473f
00000150: a44d 633f 3ed3 b13d 3f31 223f 06eb 483f
00000160: 351a bc3f 632a e83e 34d0 ac3f 25d2 b43e
00000170: 1d36 2b40 fd48 823f 64c3 803f 7238 6d3e
00000180: e373 533f ffbb 78bf 83ad 0e40 122a cf3e
-4.1206675 1.2615013 0.6796699 1.03997 -2.613175 1.4926757 0.7678566 -0.15154551
0.2612046 -7.944455 -0.76182395 0.17043473 -0.48557943 0.56945264 -2.8543773 0.23799342
0.27393848 -0.6760645 -0.71595585 -0.8283653 2.7651079 -0.2762832 -0.52574784 -0.83216935
2.179735 -0.9043717 -0.3074065 0.29849377 -0.10503179 2.7707407 -0.2967481 -0.47322857
-0.8948939 -0.33552206 -0.49426898 -0.30425525 -0.50801474 1.5845335 -0.72629744 -0.20835818
-0.4540092 -0.12521647 -0.14679532 0.32103384 -0.48447293 0.09575028 0.104904905 -0.7732116
-0.0019607425 -0.46837154 1.2083421 0.31527314 2.8688283 0.98093295 1.2378931 0.18540344
1.1781136 -1.0030591 2.590287 0.79193616 2.4828305 -0.533763 -0.4386173 -0.9862297
1.1594633 -0.44581357 -0.6638925 -0.035008818 -0.4029528 5.038028 -0.0060281223 -0.27881348
1.4433649 0.7468354 0.046460737 -0.13951491 0.31095102 1.1032959 1.0354468 -0.084473446
1.1234319 0.31182367 1.5068809 0.77891475 0.88790345 0.086828694 0.63356394 0.7848362
1.4695498 0.45344839 1.3501039 0.35316578 2.6751778 1.0178524 1.0059628 0.23166063
0.82598704 -0.9716186 2.2293403 0.40461785

bias f4 [10]
00000000: a161 ae3f c966 a23e 27cc b9be c764 29bd
00000010: fa7d 89be cb72 6a3e f577 9bbe 4418 7fbe
00000020: 513d 6dbe 8177 153e
1.3623544 0.31719044 -0.36288568 -0.041355874 -0.26853925 0.22895353 -0.30364957 -0.249116
-0.23167922 0.14596368

weight f4 [1, 10]
00000000: 9402 c1bf 61c1 2abf 1d73 423f ee98 31bf
00000010: 8675 bbbe 6806 c93f 6d2b 6c3f 64ab 5cbf
00000020: 16fb 543f 2dd8 b93f
-1.5078912 -0.6670132 0.759569 -0.6937398 -0.366131 1.570508 0.9225376 -0.8619902
0.83195627 1.4519097
