Mueller/data/d-net_T10_2hidden40.pt (torch, 9879 bytes, 5 tensors)

weight f4 [40, 2]
1.2351046 0.72192085 0.4498692 -0.28247216 0.33563778 -0.9137821 -0.77504593 -0.1850774
-0.02719737 0.08877631 0.0093328785 -0.0067681745 -0.016936095 7.778269e-05 -0.36947334 -0.45684323
0.39554963 1.1386406 0.19883555 0.13513246 0.2803654 -0.78459483 0.12796853 -1.0405906
0.799024 0.0044467333 -0.26722613 0.96977055 0.3305792 0.037620082 0.78545135 0.90591043
0.2493127 -0.4531722 -0.6711062 0.18667941 -0.11408944 0.15511991 0.018049913 -0.14360864
-0.0089761615 0.0037308978 0.71686244 -0.19515125 -0.6806918 0.30592588 0.6784959 -0.2543855
0.2897354 0.658268 -0.72429264 0.7321049 0.5091742 0.33179602 -0.016334362 -0.004950768
0.17931703 -0.44543862 -0.55195034 0.5193361 0.39122534 -0.50444853 -0.0040695504 1.0192155
0.7280019 0.019506723 1.7418122 -1.8183863 0.9283773 0.33953625 0.7180437 -0.5247902
1.4673575 -1.5184053 1.2124239 -0.45829126 -0.7245486 0.0033999553 0.48741415 -0.08181385
00000000: e817 9e3f cecf 383f 4155 e63e 31a0 90be
00000010: b7d8 ab3e a0ed 69bf 6969 46bf ee84 3dbe
00000020: 05cd debc 5bd0 b53d eee8 183c 90c7 ddbb
00000030: 91bd 8abc 441f a338 9c2b bdbe 5be7 e9be
00000040: 7b85 ca3e fabe 913f 8c9b 4b3e 2a60 0a3e
00000050: 0e8c 8f3e 35db 48bf 2f0a 033e 1332 85bf
00000060: d68c 4c3f e7b5 913b ddd1 88be e242 783f
00000070: ad41 a93e 8417 1a3d 5713 493f bfe9 673f
00000080: d44b 7f3e 3006 e8be 9ecd 2bbf e328 3f3e
00000090: b9a7 e9bd c1d7 1e3e 69dd 933c 250e 13be
000000a0: c010 13bc 1482 743b 4c84 373f bbd5 47be
000000b0: d141 2ebf 51a2 9c3e e8b1 2d3f d13e 82be
000000c0: 3358 943e 4084 283f 3e6b 39bf 3a6b 3b3f
000000d0: 3e59 023f 2be1 a93e a4cf 85bc 0d3a a2bb
000000e0: e29e 373e 8810 e4be 9e4c 0dbf 36f3 043f
000000f0: b04e c83e 8a23 01bf dd59 85bb a775 823f
00000100: 555e 3a3f 90cc 9f3c b4f3 de3f e2c0 e8bf
00000110: 22aa 6d3f b2d7 ad3e b6d1 373f a758 06bf
00000120: 5fd2 bb3f 1b5b c2bf b530 9b3f 27a5 eabe
00000130: 047c 39bf c9d1 5e3b 598e f93e 058e a7bd

bias f4 [40]
0.524979 0.4959621 0.9446105 -0.44412217 -0.08802282 -0.0083317235 0.014095453 0.044986766
-0.6658878 0.04625502 0.7740444 1.0145413 0.43638754 -1.1282465 0.21312137 -0.019322269
0.48839784 -0.5288347 -0.20211594 0.13178732 0.009955512 0.5593263 -0.64780426 0.6692539
-0.21912327 0.55204237 0.15179516 0.015951583 0.44864917 -0.7433149 -0.18625958 -0.93342566
0.36270964 -0.5882556 0.48402825 0.80601144 -0.56814253 0.9785284 -0.5419278 0.3976246
00000000: 0665 063f bfee fd3e fed1 713f fb63 e3be
00000010: 4f45 b4bd c881 08bc 9df0 663c 0b44 383d
00000020: 9f77 2abf e775 3d3d c627 463f 7ddc 813f
00000030: 306e df3e 626a 90bf 7d3c 5a3e bc49 9ebc
00000040: 480f fa3e b661 07bf 7bf7 4ebe 41f3 063e
00000050: 721c 233c 0230 0f3f 80d6 25bf 3954 2b3f
00000060: da61 60be a652 0d3f 3170 1b3e e5ac 823c
00000070: 58b5 e53e e349 3ebf d5ba 3ebe fcf4 6ebf
00000080: 14b5 b93e eb97 16bf 8dd2 f73e c456 4e3f
00000090: ca71 11bf d680 7a3f c8bb 0abf 7495 cb3e

weight f4 [40, 40]
0.06748185 -0.09787336 0.022627434 0.094429865 -0.034414407 0.06512164 0.04026177 -0.06906495
-0.03958597 0.10991143 -0.122567385 0.048457664 0.0279854 -0.26041248 -0.022129972 0.083727404
-0.14327215 0.02884438 0.13474682 -0.18176456 0.060067117 0.110221796 0.11401976 0.025946667
-0.08766034 -0.01749563 -0.09822377 0.04527752 -0.17577109 -0.041637674 0.1209833 0.11837005
0.049806066 0.10904063 0.02449329 -0.029946525 -0.07944488 0.103043325 0.24296023 0.08870905
0.18273747 0.19406343 0.06625576 0.03209112 -0.0036110803 0.030878957 0.053172674 -0.474007
-0.5622545 0.30863267 0.1476255 -0.075257115 0.2426788 0.0897221 0.19798853 0.575179
0.10312864 0.0013120435 0.2573501 -0.30820972 -0.001641836 0.08636523 0.20101702 -0.20346633
0.14403078 -0.49311242 -0.031058414 -0.009987998 -0.28763968 -0.0073865843 0.6577791 -0.04272868
0.2365725 0.8640993 0.05538327 0.009389362 0.5962299 -0.02392203 0.16014735 0.00812616
1.0074934 0.17676838 -0.42561993 -0.44647142 -0.028047558 0.11545947 -0.03989385 -0.071438365
0.8908795 0.22101535 -0.15376794 -0.89877516 -0.07305214 1.6757178 0.23085031 0.7430097
0.5620994 -0.04821845 -0.03722104 -0.006692202 0.13264151 -0.17296217 0.1671165 0.05818884
-0.4991759 -0.47334483 -0.027965393 0.18139267 -0.09486662 0.028072737 0.42593116 0.6787201
-0.06016523 0.44591814 0.3615756 -0.39275286 0.5839054 -1.820381 0.050709825 0.21141905
0.12612769 -0.40169927 0.33452737 -0.25064176 -0.18039754 0.02843419 -0.09678078 0.19912305
-0.31882462 -0.2684029 0.19914806 0.26624316 -0.3350839 -0.32100067 -0.1633585 -0.06357725
0.0041568894 0.36643457 -0.25978807 0.29768974 0.26415333 -0.111273125 -0.12535074 0.38890466
0.12066231 0.85297394 0.031215413 -0.37578142 0.5586963 -0.16714881 -0.72633797 -0.4506849
-0.5220762 -0.83256346 0.06615916 -0.1213907 -0.8360287 -0.13647507 -0.3784471 -0.40259132
-1.0678978 0.5206773 0.03997566 0.41520667 -0.40430224 -0.012390848 0.09933775 0.05360967
-0.12142655 0.17303425 0.16939081 0.16076083 0.06292607 0.14472859 0.24585591 -1.1524862
0.7866275 -0.2981234 -0.34598407 0.011222749 0.010579536 0.26127613 -0.37663627 -0.15272196
-1.018764 -0.15720811 -0.4880965 0.057019264 -0.18187934 -0.34117347 0.25375026 0.060952406
0.09410607 0.3579489 -0.44651812 0.15842883 0.41229632 -0.3883617 0.30009148 0.34144494
-0.40917796 0.0013863376 1.1541189 0.35508943 -0.091308735 0.002048253 -0.0010365974 0.35487816
-1.382161 -0.03374549 0.96674955 1.3675373 -0.19853905 -1.5300497 -0.06488489 -0.8134207
0.20455684 -0.14284265 0.005864541 -0.023097856 -0.038538326 0.1726123 0.008244264 0.061584473
-0.41094482 0.11190577 -0.149307 -0.065183565 0.02695464 -0.333378 -0.1796752 -1.3546416
-0.05447543 -0.10353526 -0.44400582 0.48620665 -0.12346066 0.6490163 0.0014640233 -0.083308846
1.0050989 0.27644742 -0.4623795 -0.39126205 -0.17545171 -0.051739555 -0.01406147 0.032279007
1.0628277 -0.090580545 -0.1025595 -0.7750108 -0.22350647 1.5904151 0.13327102 0.8220586
00000000: ed33 8a3d d471 c8bd 2b5d b93c 7264 c13d
00000010: 1ff6 0cbd 7f5e 853d 87e9 243d ed71 8dbd
00000020: e624 22bd 3e19 e13d 9c04 fbbd 8b7b 463d
00000030: a341 e53c c954 85be ea49 b5bc 4679 ab3d
00000040: efb5 12be 0d4b ec3c 12fb 093e 7d20 3abe
00000050: f008 763d f7bb e13d 3183 e93d 1b8e d43c
00000060: 4487 b3bd ff52 8fbc 8b29 c9bd ec74 393d
00000070: 56fd 33be 448c 2abd 18c6 f73d ff6b f23d
00000080: 7201 4c3d b250 df3d 27a6 c83c 6a52 f5bc
00000090: ffb3 a2bd 6108 d33d 91ca 783e 17ad b53d
000000a0: 881f 3b3e 90b8 463e 1ab1 873d fa71 033d
000000b0: e0a7 6cbb def5 fc3c 97cb 593d 0cb1 f2be
000000c0: e9ef 0fbf 1a05 9e3e 242b 173e 6720 9abd
000000d0: cb80 783e 38c0 b73d 81bd 4a3e ee3e 133f
000000e0: 1c35 d33d e0f8 ab3a 64c3 833e aacd 9dbe
000000f0: e032 d7ba 41e0 b03d 68d7 4d3e 7a59 50be
00000100: ce7c 133e 3b79 fcbe 376e febc b3a4 23bc
00000110: 8245 93be 290b f2bb 3664 283f 4504 2fbd
00000120: 1040 723e 9d35 5d3f 91d9 623d d7d5 193c
00000130: 86a2 183f 22f8 c3bc abfd 233e 9623 053c
00000140: 8bf5 803f c502 353e dbea d9be e797 e4be
00000150: fec3 e5bc 0476 ec3d bc67 23bd 474e 92bd
00000160: ae10 643f d951 623e 5875 1dbe 2116 66bf
00000170: 5c9c 95bd ec7d d63f 0664 6c3e e235 3e3f
00000180: bfe5 0f3f b680 45bd 1775 18bd 424a dbbb
00000190: 2dd3 073e ff1c 31be 9620 2b3e 6c57 6e3d
000001a0: fc93 ffbe 415a f2be ae17 e5bc 00bf 393e
000001b0: 6e49 c2bd ccf8 e53c a613 da3e 9ac0 2d3f
000001c0: d16f 76bd 624f e43e 7020 b93e e716 c9be
000001d0: d37a 153f 3f02 e9bf 1bb5 4f3d 3c7e 583e
000001e0: 9e27 013e 87ab cdbe 2c47 ab3e 1e54 80be
000001f0: 22ba 38be d2ee e83c 0035 c6bd eae6 4b3e
00000200: fb3c a3be 1b6c 89be 78ed 4b3e 0651 883e
00000210: 1e90 abbe 335a a4be 7347 27be ca34 82bd
00000220: 8436 883b 509d bb3e f102 85be ca6a 983e
00000230: 1b3f 873e 2ae3 e3bd f25b 00be 831e c73e
00000240: cd1d f73d 805c 5a3f 77b7 ff3c 6c66 c0be
00000250: b906 0f3f 0f29 2bbe 49f1 39bf 2cc0 e6be
00000260: c9a6 05bf e122 55bf 747e 873d b09b f8bd
00000270: fa05 56bf 1fc0 0bbe d1c3 c1be 7320 cebe
00000280: e0b0 88bf 1c4b 053f 85bd 233d f895 d43e
00000290: b400 cfbe fc02 4bbc 9771 cb3d d095 5b3d
000002a0: 7cae f8bd e42f 313e c974 2d3e 7d9e 243e
000002b0: 62df 803d bb33 143e a7c1 7b3e ab84 93bf
000002c0: 6b60 493f a1a3 98be d324 b1be 9fdf 373c
000002d0: ca55 2d3c fcc5 853e 78d6 c0be 2563 1cbe
000002e0: dc66 82bf 2afb 20be c9e7 f9be 088d 693d
000002f0: 943e 3abe 4aae aebe 8eeb 813e 3ba9 793d
00000300: afba c03d 1445 b73e 069e e4be 2b3b 223e
00000310: 8118 d33e 58d7 c6be 97a5 993e dfd1 ae3e
00000320: c67f d1be c5b5 b53a 2bba 933f 48ce b53e
00000330: 1300 bbbd fc3b 063b 70de 87ba 97b2 b53e
00000340: a7ea b0bf b638 0abd e67c 773f 760b af3f
00000350: d24d 4bbe abd8 c3bf 5fe2 84bd 573c 50bf
00000360: 5977 513e 5845 12be 562b c03b b737 bdbc
00000370: 5dda 1dbd 47c1 303e f312 073c 0040 7c3d
00000380: 5c67 d2be da2e e53d efe3 18be f67e 85bd
00000390: facf dc3c 85b0 aabe c7fc 37be e564 adbf
000003a0: a121 5fbd 4b0a d4bd bb54 e3be 14f0 f83e
000003b0: f1d8 fcbd ef25 263f 78e4 bf3a d49d aabd
000003c0: 15a7 803f 848a 8d3e 01bd ecbe 8053 c8be
000003d0: 9da9 33be dbec 53bd 1462 66bc fe36 043d
000003e0: bd0a 883f 4b82 b9bd b70a d2bd 1c67 46bf
000003f0: e1de 64be b992 cb3f 3378 083e 6f72 523f

bias f4 [40]
0.10448619 -0.45708638 -0.6854187 0.7155831 -0.23162952 0.35424617 -0.703755 -0.1065613
-0.24291174 0.7750661 -0.47466105 0.04665342 -0.38360074 0.47646493 0.25015226 0.063133314
-0.22139975 0.029009838 -0.2530938 0.17318037 0.19077902 0.57388526 -0.45696536 -0.49536994
-0.30470255 -0.2654301 -0.45960632 0.76762384 -0.53858197 0.7378348 -0.4979651 -0.28030622
0.4778215 -0.40329927 0.03942301 0.5726229 -0.34062597 -0.08920439 0.66705316 0.13281047
00000000: dbfc d53d 3a07 eabe 9a77 2fbf 7430 373f
00000010: 4a30 6dbe c15f b53e 4a29 34bf d03c dabd
00000020: dbbd 78be bb6a 463f c606 f3be a817 3f3d
00000030: 5167 c4be 36f3 f33e f513 803e 0a4c 813d
00000040: 9eb6 62be 0aa6 ed3c 8395 81be 3256 313e
00000050: 935b 433e 25ea 123f 5df7 e9be 21a1 fdbe
00000060: f901 9cbe 74e6 87be 8551 ebbe ff82 443f
00000070: 82e0 09bf bee2 3c3f 48f5 febe 4c84 8fbe
00000080: 05a5 f43e 3e7d cebe 067a 213d 6a97 123f
00000090: 8766 aebe cbb0 b6bd ffc3 2a3f 78ff 073e

weight f4 [1, 40]
-0.00022048011 0.2153009 -0.40568942 -0.33076653 -0.19169533 0.27785647 -0.68980074 -0.5010111
0.2303149 0.50001824 -0.42000598 0.2593109 -0.5577207 -0.25268486 0.492294 0.19979873
-0.58993703 0.0049595013 0.2771666 -0.28533685 0.41321632 0.49399793 0.2821657 0.36401382
0.42205292 0.1574844 -0.773665 0.4584094 0.51792943 -0.28047484 0.2474652 0.29859528
-0.2791984 0.40330514 -0.23266838 -0.40822607 0.24521151 0.34826034 -0.18553872 0.01227783
00000000: ae30 67b9 d777 5c3e 86b6 cfbe 3b5a a9be
00000010: c84b 44be 3443 8e3e c896 30bf 4342 00bf
00000020: abd7 6b3e 3201 003f 060b d7be 66c4 843e
00000030: c9c6 0ebf e95f 81be f60d fc3e 0a98 4c3e
00000040: 1d06 17bf 5083 a23b c8e8 8d3e ac17 92be
00000050: 1791 d33e 4ced fc3e 0678 903e 0560 ba3e
00000060: 5217 d83e 9743 213e e90e 46bf a3b4 ea3e
00000070: 0697 043f 669a 8fbe 8467 7d3e 7be1 983e
00000080: 18f3 8ebe 037e ce3e 9f40 6ebe 0203 d1be
00000090: ba18 7b3e 2e4f b23e ddfd 3dbe f428 493c
