Duffing/data/Duffiing_gamma0.5_beta20_PINN.pt (torch, 2783 bytes, 3 tensors)

weight f4 [40, 2]
00000000: 2af5 0340 b300 adbe 4b38 c4bf 33da 02bf
00000010: 821f d2bf 7f4d 843c ee0d 6dbf c8ef a73f
00000020: 3140 93be d465 b1be e13f 9f3f 6ace c93f
00000030: db8a e13f 66ce a83d 783e 083e 2bb6 71bf
00000040: 9f45 20bd 4b83 4e3f fa30 bc3f 63d1 a13f
00000050: 8b13 e3be 0b10 98bf e8a0 933e 49ba e7bf
00000060: b3c0 97be 3be5 b3be 6ee1 613f be09 193f
00000070: 5c86 06c0 76df 23be f3c6 71be fc3f a93f
00000080: faad 9c3f 0fa2 a5bf edeb 3ac0 2c81 ebbf
00000090: 033a 8c3f c94b 6e3e 1bf4 ff3f 211a 563e
000000a0: 75a2 0340 1793 acbe 6086 873f c606 a83f
000000b0: c0e0 93bf 80b1 443f b4ed d4bf d963 18bf
000000c0: f9bd 50bf 628c b4bf 7c07 a5be 2dda dbbf
000000d0: 53f6 d03e fdbe 9b3f 1058 f03f c81a be3f
000000e0: 5a07 5ebe e7e8 a9be 97ea 1d3f 8f08 ac3e
000000f0: a56e a9bf d3a9 613f a40f 133e 49c8 133f
00000100: dc6f d3bf 344a b4bf 57b8 8d3f cc71 6a3e
00000110: a65a bbbf ce83 a3bf ab0e 933f ec31 5c3e
00000120: 7ac5 ab3f ac72 cf3f 2f52 4ebe 2234 883f
00000130: b46c 5e3f 13a6 c83f 2eec 97bf 654c 453f
2.0618386 -0.33789596 -1.5329679 -0.51114196 -1.6415865 0.016150234 -0.9259938 1.312005
-0.28759912 -0.34648 1.2441369 1.5766118 1.76205 0.082424924 0.1330508 -0.9441859
-0.039128896 0.8066909 1.4702446 1.2642025 -0.44350848 -1.1879896 0.288337 -1.8103725
-0.29639205 -0.35135826 0.88234603 0.5978049 -2.1019506 -0.16003212 -0.2361105 1.3222651
1.2240593 -1.2940081 -2.9206498 -1.8398795 1.0955204 0.23271097 1.999637 0.20908405
2.0567906 -0.3370597 1.0587883 1.3127067 -1.1552963 0.76833344 -1.6635041 -0.59527355
-0.81539875 -1.4105341 -0.32232273 -1.7175957 0.4081293 1.216766 1.8776875 1.4851923
-0.21682492 -0.33185503 0.6168608 0.3360028 -1.3236891 0.88149756 0.14361435 0.57727486
-1.6518512 -1.4085145 1.1071881 0.22894973 -1.4637039 -1.2774599 1.1488851 0.21503419
1.341964 1.620687 -0.20148538 1.064091 0.8688462 1.5675682 -1.1868951 0.77069694

bias f4 [40]
00000000: 1d07 55c0 4532 1fc0 1575 49c0 fa6d 75bc
00000010: 2f40 553e 9680 e1bf 37f7 47c0 d577 7d3e
00000020: ff26 383f ff1d e2bd e2c0 1840 6ed2 073d
00000030: e61a f43d 5d8e ad3e b038 58c0 f760 e5bf
00000040: fd77 083e d8d2 5dbb 92f7 3bc0 fde6 4ac0
00000050: 84cb 5240 e412 43bd 63b5 1b3f d1e2 2140
00000060: 633f f7bf e491 733d 67fb 1740 c0c0 31bd
00000070: d13f 45be 413d 90be 565e b63b f071 923f
00000080: 8453 83be 2a10 3dc0 be23 3f3e 363e 3e40
00000090: dd24 e83f c734 ad3f a0d1 09c0 b0e5 0ebf
-3.3285592 -2.4874432 -3.1477711 -0.014979834 0.20825265 -1.7617366 -3.1244638 0.24752744
0.71934503 -0.110408776 2.3867726 0.033159666 0.11919193 0.33897677 -3.37846 -1.7920216
0.13327022 -0.0033847596 -2.9369855 -3.1703484 3.2936716 -0.047625437 0.6082365 2.5294688
-1.9316219 0.059465304 2.3747194 -0.04339671 -0.19262625 -0.28171733 0.005565445 1.1441021
-0.25649655 -2.9541116 0.18665978 2.972547 1.813625 1.3531731 -2.1534195 -0.55819225

weight f4 [1, 40]
00000000: 89f6 a9bf 9132 a33f f834 8c3f a1b6 60be
00000010: 6ba6 5b3f d7eb f6bf 51bc a8bf 4040 03c0
00000020: 2922 923f 0ceb 333f 51d3 e33f 4abf 2fbf
00000030: 83a6 933f ef9b 283f 4d87 b23f a460 cd3f
00000040: 25dd 013f 2375 96bf 4c3e 30bf 798c 99bf
00000050: 8158 a9bf 92e8 243f fc2b a8bf 8710 5f3f
00000060: e49b 0740 17f4 c4bf 07d4 d8bf 1b7b 933f
00000070: aab5 663f 01e9 3c3f b8d7 84bf 3cee 3ebf
00000080: 5073 4ebf de99 b3bf e93c 7bbf 51a8 9abf
00000090: f492 c8bf 2b4c 0740 c161 dbbf 05e5 abbf
-1.3278362 1.2749807 1.0953665 -0.21944667 0.8580081 -1.9290723 -1.318247 -2.0507965
1.1416675 0.7028053 1.7798864 -0.6865126 1.153519 0.65862936 1.394754 1.6045117
0.50728065 -1.1754497 -0.6884506 -1.1995994 -1.3230134 0.64417374 -1.3138423 0.87134594
2.1188898 -1.538699 -1.6939706 1.1521944 0.9012095 0.73793036 -1.0378332 -0.74582267
-0.806447 -1.4031332 -0.98139817 -1.2082616 -1.5669847 2.114024 -1.7139207 -1.3429266
