Duffing/data/Duffiing_gamma0.5_beta10_PINN.pt (torch, 2783 bytes, 3 tensors)

weight f4 [40, 2]
0	0x3fc1b473	1.5133194
1	0xbf35c7ba	-0.71007884
2	0xbfc4c44f	-1.5372409
3	0x3fa0f88a	1.2575848
4	0xbf9fd485	-1.2486731
5	0xbfb25bc5	-1.3934256
6	0xbd9a9834	-0.07548562
7	0x401438f6	2.3159766
8	0x3fa09d7a	1.2548058
9	0xbf1b8ddb	-0.6076333
10	0x3f337f28	0.701159
11	0x3f48e9b0	0.7848158
12	0x4004e2c3	2.0763404
13	0x3d9a2e31	0.075283416
14	0x3f8902c3	1.0703968
15	0xbf6f6b7e	-0.93523395
16	0xbb619d94	-0.00344262
17	0x3ea23a71	0.31685212
18	0x3fa1c0e3	1.2636989
19	0x3f3aafae	0.72924316
20	0xbeb4dbd1	-0.35323957
21	0xbfb59eee	-1.4189126
22	0x3ec99b49	0.39376286
23	0xbfd0e446	-1.6319664
24	0xbd89c52f	-0.06727063
25	0xbf02bdbc	-0.5107076
26	0x3f4edec7	0.8080868
27	0x4033d188	2.8096638
28	0xc0033b35	-2.0504887
29	0x3f948752	1.1603796
30	0x3eb89627	0.36052057
31	0x4037dfd5	2.8730366
32	0x3f36288b	0.71155614
33	0xc02481fd	-2.5704339
34	0xbfeeb9d9	-1.8650466
35	0xbfaad88f	-1.3347338
36	0x3fc14b2c	1.5101066
37	0xbf918f41	-1.1371843
38	0x3f901c47	1.125863
39	0x3f09a738	0.5377078
40	0x4009ad28	2.1511936
41	0x3f0913d8	0.53545904
42	0x400ad760	2.1693954
43	0x3f229a57	0.63516754
44	0xbf84cee9	-1.0375644
45	0x40185b68	2.380579
46	0xbff9bcda	-1.9510758
47	0x3f8c186a	1.094495
48	0xbf807c26	-1.0037887
49	0xbf939ab6	-1.1531589
50	0xbfc0cabe	-1.5061872
51	0xbf97b3d9	-1.185176
52	0x40084ada	2.1295686
53	0xbec5c6db	-0.38628277
54	0x3f95fb50	1.171732
55	0x3fa6c5d3	1.3029121
56	0x3e8572a0	0.26064014
57	0xbf9d4f3c	-1.2289805
58	0x3f999def	1.2001323
59	0x3f32fa62	0.69913304
60	0xbcb980c9	-0.022644417
61	0x401c1545	2.4387982
62	0x3f6ca77b	0.92443055
63	0x4007df35	2.1229985
64	0xc002dee4	-2.0448542
65	0x3ea80abe	0.32820696
66	0xbe317b13	-0.17332105
67	0xbf17133b	-0.5901372
68	0xbf63fbf1	-0.8905631
69	0xbfb70d41	-1.430092
70	0x4001d700	2.0287476
71	0x3cf68aec	0.03009554
72	0x3f9b22da	1.2120011
73	0x3f1f657a	0.62264216
74	0x3f7e6701	0.9937592
75	0x3f9236e3	1.1423
76	0x3e8478fc	0.25873554
77	0x3f9e2b74	1.2357011
78	0xbf9b19c8	-1.2117243
79	0x40017b62	2.0231557

bias f4 [40]
0	0xc00fb9f6	-2.2457252
1	0xbf538bbe	-0.82635105
2	0x3faa127c	1.3286891
3	0xbf0ea0c4	-0.5571406
4	0x3fde5df4	1.7372422
5	0xbf6610cb	-0.89869374
6	0xc03783b9	-2.8674147
7	0x3f6c6085	0.9233478
8	0xbd65a208	-0.05606273
9	0xbd66a762	-0.056311972
10	0xbf8144dc	-1.0099139
11	0x3d7b4c09	0.06135181
12	0x3f4e8791	0.8067561
13	0xbced6ae9	-0.028981643
14	0xbfa647a8	-1.2990618
15	0x3d185370	0.037188947
16	0xbc2577bd	-0.010099349
17	0xbe50a1b5	-0.20374186
18	0xbfcbee7d	-1.5932156
19	0xbf984e52	-1.1898901
20	0x3fd106a5	1.6330153
21	0xbfcaf26b	-1.585523
22	0xbb90b2b2	-0.0044158334
23	0x3f9e5c7e	1.2371976
24	0xbf8000ce	-1.0000246
25	0x3ec28355	0.37990823
26	0x3fd41ea1	1.6571847
27	0x3ebb6700	0.3660202
28	0xbea7752a	-0.32706577
29	0xbdf2a012	-0.11846937
30	0x3f2f3c9b	0.6845185
31	0x3d03fc13	0.03222282
32	0x3fcbc393	1.591906
33	0xbf80a4b6	-1.0050266
34	0x3e057d72	0.13036135
35	0x40321a6d	2.782863
36	0x3fc43f15	1.5331751
37	0x3f7d3955	0.98915607
38	0xbf6e5a8f	-0.9310693
39	0x3ac9f35e	0.0015407612

weight f4 [1, 40]
0	0xbfbf0b2e	-1.4925287
1	0xbef969f5	-0.4871365
2	0x3fcb0fe0	1.586422
3	0xbea757fe	-0.3268432
4	0xbfe9d5b4	-1.8268342
5	0xbfdd4302	-1.7286074
6	0xbfbf62e5	-1.4952055
7	0xbfab3e7f	-1.3378447
8	0xbfe1b075	-1.7631975
9	0x3f4cff7c	0.8007734
10	0xbf6e49c2	-0.93081295
11	0xbf3448ed	-0.70423776
12	0x3ff77080	1.9331207
13	0x3ed3e92b	0.4138883
14	0xbf0214be	-0.508129
15	0x3ef79593	0.48356304
16	0x3ed1a284	0.40944302
17	0xbf89deba	-1.0771096
18	0xbf528b26	-0.82243574
19	0xbfc46f54	-1.5346475
20	0x3f8a37fb	1.0798334
21	0x3f837c90	1.0272388
22	0xbebc4bd4	-0.36776602
23	0xbf0e6738	-0.5562625
24	0x3fb6381f	1.4235877
25	0xbf919472	-1.1373427
26	0x3f8df207	1.1089486
27	0x3f979a21	1.1843911
28	0xbf08e02d	-0.53467065
29	0x3f208bc4	0.62713265
30	0xbeaf2fbb	-0.34216103
31	0x3f525396	0.8215879
32	0xbf947d1b	-1.1600679
33	0x3fca2ca5	1.5794874
34	0xbf917852	-1.1364844
35	0xbfb97003	-1.4487308
36	0xbfd74724	-1.6818585
37	0xbfb9158f	-1.4459704
38	0x3f97e9a4	1.1868176
39	0xbf06cdb0	-0.52657604
